…
  "decoder_layers": 3,
  "decoder_start_token_id": 2,
  "dropout": 0.1,
  "encoder_attention_heads": 16,
  "encoder_ffn_dim": 4096,
  "encoder_layerdrop": 0.0,
  "encoder_layers": 12,
  "eos_token_id": 2,
  "init_std": 0.02,
  "is_encoder_decoder": true,
  "max_length": 256,
  "max_position_embeddings": 1024,
  "model_type": "m2m_100",
  "num_beams": 5,
  "num_hidden_layers": 12,
  "pad_token_id": 1,
  "scale_embedding": true,
  "torch_dtype": "float32",
  "transformers_version": "4.33.2",
  "use_cache": true,
  "vocab_size": 128112
}

>>> model
M2M100ForConditionalGeneration(
  (model): M2M100Model(
    (shared): Embedding(128112, 1024, padding_idx=1)
    (encoder): M2M100Encoder(
      (embed_tokens): Embedding(128112, 1024, padding_idx=1)
      (embed_positions): M2M100SinusoidalPositionalEmbedding()
      (layers): ModuleList(
        (0-11): 12 x M2M100EncoderLayer(
          (self_attn): M2M100Attention(
            (k_proj): Linear(in_features=1024, out_features=1024, bias=True)
            (v_proj): Linear(in_features=1024, out_features=1024, bias=True)
            (q_proj): Linear(in_features=1024, out_features=1024, bias=True)
            (out_proj): Linear(in_features=1024, out_features=1024, bias=True)
          )
          (self_attn_layer_norm): LayerNorm((1024,), eps=1e-05, elementwise_affine=True)
          (activation_fn): ReLU()
          (fc1): Linear(in_features=1024, out_features=4096, bias=True)
          (fc2): Linear(in_features=4096, out_features=1024, bias=True)
          (final_layer_norm): LayerNorm((1024,), eps=1e-05, elementwise_affine=True)
        )
      )
      (layer_norm): LayerNorm((1024,), eps=1e-05, elementwise_affine=True)
    )
    (decoder): M2M100Decoder(
      (embed_tokens): Embedding(128112, 1024, padding_idx=1)
      (embed_positions): M2M100SinusoidalPositionalEmbedding()
      (layers): ModuleList(
        (0-2): 3 x M2M100DecoderLayer(
          (self_attn): M2M100Attention(
            (k_proj): Linear(in_features=1024, out_features=1024, bias=True)
            (v_proj): Linear(in_features=1024, out_features=1024, bias=True)
            (q_proj): Linear(in_features=1024, out_features=1024, bias=True)
            (out_proj): Linear(in_features=1024, out_features=1024, bias=True)
          )
          (activation_fn): ReLU()
          (self_attn_layer_norm): LayerNorm((1024,), eps=1e-05, elementwise_affine=True)
          (encoder_attn): M2M100Attention(
            (k_proj): Linear(in_features=1024, out_features=1024, bias=True)
            (v_proj): Linear(in_features=1024, out_features=1024, bias=True)
            (q_proj): Linear(in_features=1024, out_features=1024, bias=True)
            (out_proj): Linear(in_features=1024, out_features=1024, bias=True)
          )
          (encoder_attn_layer_norm): LayerNorm((1024,), eps=1e-05, elementwise_affine=True)
          (fc1): Linear(in_features=1024, out_features=4096, bias=True)
          (fc2): Linear(in_features=4096, out_features=1024, bias=True)
          (final_layer_norm): LayerNorm((1024,), eps=1e-05, elementwise_affine=True)
        )
      )
      (layer_norm): LayerNorm((1024,), eps=1e-05, elementwise_affine=True)
    )
  )
  (lm_head): Linear(in_features=1024, out_features=128112, bias=False)
)

[https://huggingface.co/docs/transformers/model_doc/m2m_100]

[https://github.com/huggingface/transformers/blob/v4.35.0/src/transformers/models/m2m_100/modeling_m2m_100.py#L1214]






































